out-shakespeare-char/qckpt.pt (torch, 923798 bytes, 30 tensors)

cpu f4 [65]
0.0006089205 0.00053855125 0.0006125562 0.0004997294 0.00043021873 0.0005286805 0.0006517934 0.0006286859
0.0006388987 0.0006390464 0.0006461818 0.0005741586 0.00060634903 0.0006332895 0.00053455017 0.00057267974
0.0007394634 0.00060767954 0.00064029073 0.00052529876 0.000517919 0.00051531056 0.0006079342 0.00057664193
0.00063185365 0.000571214 0.00066052965 0.0006437995 0.00056256115 0.00060091895 0.0005759377 0.00053492247
0.00066117727 0.00053971034 0.00062015094 0.0006075636 0.00048015304 0.0006272481 0.00055093324 0.0006187004
0.0006690359 0.0005651122 0.0005410489 0.0006022335 0.0005270708 0.00062031 0.0005095312 0.0006465843
0.000708736 0.00048990926 0.00059390726 0.0004867048 0.00050207344 0.00058471493 0.00064973446 0.00060657354
0.0006096246 0.0005823813 0.0005651814 0.00051939546 0.0007581611 0.0006019906 0.0006228334 0.00051623164
0.0005723098
00000000: f79f 1f3a 902d 0d3a f393 203a 4600 033a
00000010: fb8e e139 2697 0a3a 1ddd 2a3a 66ce 243a
00000020: c47b 273a ae85 273a 8764 293a 2283 163a
00000030: 65f3 1e3a 5703 263a 0e21 0c3a e31f 163a
00000040: 8cd8 413a af4c 1f3a 2fd9 273a 34b4 093a
00000050: f5c4 073a e815 073a c65d 1f3a c929 173a
00000060: fba2 253a 86bd 153a 6527 2d3a a7c4 283a
00000070: d778 133a fd86 1d3a 86fa 163a 0a3a 0c3a
00000080: db52 2d3a 597b 0d3a a091 223a e744 1f3a
00000090: 0dbd fb39 e86d 243a 816c 103a 4830 223a
000000a0: 3d62 2f3a 0a24 143a 2dd5 0d3a 35df 1d3a
000000b0: 1f2b 0a3a 4d9c 223a 0f92 053a 8a7f 293a
000000c0: 78ca 393a 416d 003a 71b0 1b3a 6a2c ff39
000000d0: 949d 033a 8e47 193a f152 2a3a 7602 1f3a
000000e0: 37cf 1f3a f3aa 183a af28 143a 0a28 083a
000000f0: 55bf 463a e8ce 1d3a a445 233a b853 073a
00000100: 0f07 163a

cpu f4 [65]
124.94867 133.43008 123.46968 126.45366 127.468155 129.7529 129.15056 138.22234
115.09011 127.41687 123.531685 122.90479 120.09166 122.282875 118.32758 126.09122
120.417786 124.124 132.37383 133.79073 131.90222 132.10872 134.45656 120.52138
130.50018 126.68281 127.54115 129.53033 132.86511 115.67638 122.84686 124.78839
118.5822 133.81874 128.24637 125.5157 124.799706 139.6074 122.19341 135.40355
103.12624 126.02895 122.403 123.013596 127.8756 125.96899 127.797714 140.07153
117.77555 120.932434 125.97302 129.8974 124.88954 121.403366 131.08008 127.14667
126.84052 124.79521 122.06527 127.05534 116.02558 135.56107 121.47469 126.96567
123.16081
00000000: b8e5 f942 1a6e 0543 7af0 f642 46e8 fc42
00000010: b2ef fe42 bec0 0143 8b26 0143 eb38 0a43
00000020: 232e e642 70d5 fe42 3910 f742 41cf f542
00000030: ee2e f042 d590 f442 b9a7 ec42 b42e fc42
00000040: e8d5 f042 7d3f f842 b35f 0443 6dca 0543
00000050: f8e6 0343 d51b 0443 e174 0643 f20a f142
00000060: 0c80 0243 995d fd42 1215 ff42 c487 0143
00000070: 78dd 0443 4e5a e742 98b1 f542 a893 f942
00000080: 162a ed42 99d1 0543 123f 0043 0a08 fb42
00000090: 7399 f942 7f9b 0b43 0763 f442 4f67 0743
000000a0: a340 ce42 d30e fc42 56ce f442 f606 f642
000000b0: 4fc0 ff42 1ff0 fb42 6e98 ff42 5012 0c43
000000c0: 158d eb42 68dd f142 30f2 fb42 bce5 0143
000000d0: 72c7 f942 86ce f242 8014 0343 184b fe42
000000e0: 59ae fd42 2697 f942 6b21 f442 561c fe42
000000f0: 190d e842 a28f 0743 0bf3 f242 6cee fd42
00000100: 5652 f642

cpu f4 [64]
0.00047535868 0.00044811182 0.00040152037 0.0004427175 0.00034457733 0.00037997265 0.00036581748 0.00043081917
0.00043209564 0.00035759166 0.00036468665 0.00033791878 0.00040933676 0.00034415233 0.00039229187 0.0003317362
0.0003278477 0.00035130884 0.00036291475 0.00039636873 0.00032332225 0.00034794392 0.00032549884 0.0003453656
0.00037334263 0.00030217037 0.0002689776 0.0004436354 0.00034803431 0.00036857754 0.0003059472 0.00029507547
0.00035128032 0.00033470243 0.00033989875 0.00031093755 0.0003535722 0.00032468233 0.00025615224 0.0003072409
0.00034844407 0.00029933194 0.0003778851 0.00032873807 0.00036924807 0.00034203645 0.00035582355 0.00032436935
0.0003103205 0.00029727 0.00029930437 0.0002935337 0.00029578805 0.00041484085 0.00029010072 0.0002704125
0.00031646513 0.0003219517 0.00031687348 0.00039025795 0.0003407338 0.00029965365 0.0002664364 0.00029506398
00000000: 9039 f939 8df0 ea39 2783 d239 891c e839
00000010: 63a8 b439 1137 c739 31cb bf39 92df e139
00000020: e58a e239 247b bb39 6a33 bf39 b12a b139
00000030: 409c d639 586f b439 86ac cd39 e1ec ad39
00000040: f9e2 ab39 e02f b839 9845 be39 b6cf cf39
00000050: 9483 a939 3e6c b639 b7a7 aa39 3012 b539
00000060: 33bd c339 9f6c 9e39 9005 8d39 bc97 e839
00000070: 6078 b639 a43d c139 8a67 a039 5cb4 9a39
00000080: 0c2c b839 007b af39 7034 b239 5505 a339
00000090: a85f b939 203a aa39 2c4c 8639 2d15 a139
000000a0: 5faf b639 a7ef 9c39 e11e c639 7a5a ac39
000000b0: a397 c139 5b53 b339 d48d ba39 1e10 aa39
000000c0: 83b2 a239 e7da 9b39 f4eb 9c39 6de5 9939
000000d0: 0014 9b39 ff7e d939 a918 9839 27c6 8d39
000000e0: 3beb a539 a0cb a839 0a22 a639 899b cc39
000000f0: 84a4 b239 d51a 9d39 7db0 8b39 d1b2 9a39

cpu f4 [64]
121.40372 152.11183 147.10548 98.69563 126.801926 131.37428 126.385155 122.34675
129.26888 136.81552 134.88588 123.97776 137.70773 106.47742 148.2543 110.17932
149.56374 142.72894 107.58141 118.76839 127.78545 119.63237 126.11582 146.6087
113.8532 120.90202 125.10151 118.99888 134.95236 127.687744 106.73712 119.13109
107.162315 121.82262 142.40443 122.78405 100.110855 125.07858 127.9144 123.95322
148.70134 145.38643 121.12249 129.63362 124.8337 133.10689 127.75579 137.18301
127.764 126.58311 124.50709 110.35954 107.57201 140.29272 108.374306 108.72371
118.82749 140.42555 151.24753 143.46864 100.02544 132.28891 145.01604 131.47972
00000000: b4ce f242 a11c 1843 011b 1343 2a64 c542
00000010: 969a fd42 d15f 0343 33c5 fc42 89b1 f442
00000020: d544 0143 c6d0 0843 c9e2 0643 9df4 f742
00000030: 2eb5 0943 70f4 d442 1a41 1443 d05b dc42
00000040: 5190 1543 9cba 0e43 af29 d742 6a89 ed42
00000050: 2792 ff42 c643 ef42 4d3b fc42 d49b 1243
00000060: d7b4 e342 d6cd f142 f933 fa42 6dff ed42
00000070: cef3 0643 2060 ff42 6879 d542 1e43 ee42
00000080: 1b53 d642 2ea5 f342 8967 0e43 6f91 f542
00000090: c238 c842 3c28 fa42 2cd4 ff42 0ce8 f742
000000a0: 8bb3 1443 ed62 1143 b73e f242 35a2 0143
000000b0: dbaa f942 5d1b 0543 f782 ff42 da2e 0943
000000c0: 2b87 ff42 8d2a fd42 a103 f942 16b8 dc42
000000d0: de24 d742 f04a 0c43 a5bf d842 8a72 d942
000000e0: ada7 ed42 f16c 0c43 5e3f 1743 f977 0f43
000000f0: 060d c842 f649 0443 1b04 1143 cf7a 0343

transformer.h.0.ln_1.weight f4 [128]
0.975204 1.0051378 0.9910007 0.9797859 0.97892493 0.9852539 0.98689485 0.9802815
1.0015932 0.98305774 0.98743373 0.9934117 0.99573606 0.9683197 0.9827599 0.99004704
0.982219 0.9741072 0.9902649 1.0004519 0.9914254 1.0106525 0.97568446 0.977746
1.0073098 1.0020427 0.988858 0.97480017 1.0304153 0.99074835 0.9605435 1.0141288
0.99574465 0.98054475 0.9796741 0.96052617 0.9890623 0.97698706 0.9875398 0.9896491
0.98646384 0.9932302 0.9680494 0.9874567 1.015475 0.98926127 0.9716783 0.9955938
0.99069786 0.981721 0.98375815 0.97870994 0.9869126 0.9985023 0.9876084 0.98786294
0.9899772 0.9978587 0.972362 0.99061763 0.9817752 0.9941943 0.99580353 0.9873538
0.971223 0.98473567 0.9815143 0.98796487 0.98619264 0.982422 0.9846872 0.98590297
0.98850155 0.9883161 0.9889039 0.98791397 0.9945387 0.9864632 1.0015489 0.9879596
0.9993579 0.9894702 0.97448725 0.9974717 0.99769175 0.96702874 0.96892506 0.9875977
0.97943175 0.98613083 0.9836019 0.98821735 0.9882695 0.9902249 1.0006583 0.99943393
0.9828041 0.9837258 0.97745013 0.98944277 1.0016133 0.9798216 0.99788445 0.98085415
0.9997835 0.9907279 1.0121855 0.97818124 0.98500806 0.9693854 0.97976077 0.9985571
0.9848368 0.9768384 0.9750309 0.98193175 1.0007272 0.98128366 0.99460596 0.9734795
0.9795417 0.99851334 0.9780654 1.0001557 0.9853297 0.9763487 0.99601316 0.9815035
00000000: f8a6 793f 5ba8 803f 39b2 7d3f 40d3 7a3f
00000010: d39a 7a3f 9939 7c3f 24a5 7c3f baf3 7a3f
00000020: 3534 803f aca9 7b3f 75c8 7c3f 3b50 7e3f
00000030: 8fe8 7e3f cde3 773f 2796 7b3f b973 7d3f
00000040: b472 7b3f 175f 793f 0082 7d3f cf0e 803f
00000050: 0ece 7d3f 105d 813f 75c6 793f 904d 7a3f
00000060: 87ef 803f ef42 803f cc25 7d3f 818c 793f
00000070: a6e4 833f afa1 7d3f 2ee6 753f f9ce 813f
00000080: 1fe9 7e3f fb04 7b3f eccb 7a3f 0be5 753f
00000090: 3033 7d3f d31b 7a3f 69cf 7c3f a559 7d3f
000000a0: e588 7c3f 5644 7e3f 16d2 773f f6c9 7c3f
000000b0: 16fb 813f 3a40 7d3f e9bf 783f 3cdf 7e3f
000000c0: 609e 7d3f 1152 7b3f 93d7 7b3f bc8c 7a3f
000000d0: 4ea6 7c3f d99d 7f3f e7d3 7c3f 96e4 7c3f
000000e0: 256f 7d3f ab73 7f3f b7ec 783f 1e99 7d3f
000000f0: 9f55 7b3f 8583 7e3f fbec 7e3f 38c3 7c3f
00000100: 12a2 783f a317 7c3f 8544 7b3f 44eb 7c3f
00000110: 1f77 7c3f 0280 7b3f 7614 7c3f 2364 7c3f
00000120: 700e 7d3f 4902 7d3f ce28 7d3f eee7 7c3f
00000130: 179a 7e3f da88 7c3f c132 803f ecea 7c3f
00000140: ebd5 7f3f eb4d 7d3f ff77 793f 4e5a 7f3f
00000150: ba68 7f3f 328f 773f 790b 783f 34d3 7c3f
00000160: 0abc 7a3f 1273 7c3f 56cd 7b3f d0fb 7c3f
00000170: 3bff 7c3f 617f 7d3f 9215 803f e7da 7f3f
00000180: 0d99 7b3f 74d5 7b3f 2c3a 7a3f 1f4c 7d3f
00000190: dd34 803f 97d5 7a3f 5b75 7f3f 4219 7b3f
000001a0: d0f1 7f3f 58a0 7d3f 4b8f 813f 166a 7a3f
000001b0: 7d29 7c3f a429 783f 9ad1 7a3f 70a1 7f3f
000001c0: 441e 7c3f 1512 7a3f a09b 793f e15f 7b3f
000001d0: d417 803f 6835 7b3f 7f9e 7e3f f435 793f
000001e0: 3fc3 7a3f 929e 7f3f 7e62 7a3f 1a05 803f
000001f0: 913e 7c3f fdf1 793f b8fa 7e3f d043 7b3f

cpu f8 [384]
0.00044909302960149944 0.0004236428649164736 0.0005134622915647924 0.000509370700456202 0.00046912283869460225 0.0005410057492554188 0.0005989389028400183 0.0004505998804233968
0.0004742884775623679 0.0005559921264648438 0.0005322525976225734 0.0004572115431074053 0.0004491714062169194 0.00051534065278247 0.00047432814608328044 0.00044283876195549965
0.0005490438779816031 0.00046231370652094483 0.00048788514686748385 0.0005056069931015372 0.00042077916441485286 0.0004603269917424768 0.0004143571713939309 0.00044681740109808743
0.0004696474934462458 0.000523054099176079 0.0004992860485799611 0.0004409114771988243 0.0004942986415699124 0.0004018217441625893 0.0004496201581787318 0.000393231981433928
0.0004472233704291284 0.000637614808510989 0.00043810525676235557 0.0004022018692921847 0.00042820791713893414 0.0006041334709152579 0.0004484863602556288 0.0005703779170289636
0.00043066078796982765 0.0004969281726516783 0.00042491330532357097 0.0003926314821001142 0.0004553853941615671 0.0005478059756569564 0.0004967283457517624 0.0004751828673761338
0.0005371556035242975 0.00040369227644987404 0.0005179322324693203 0.0004538110224530101 0.0005507046589627862 0.0005264621577225626 0.0005522895371541381 0.0005422943504527211
0.00047311827074736357 0.000442991906311363 0.00048812630120664835 0.0005011323373764753 0.0005452093901112676 0.0005772513104602695 0.0005433204933069646 0.0005023960839025676
0.0005624496843665838 0.0005058578681200743 0.00042877907981164753 0.0005087476456537843 0.0005011134198866785 0.0005033027846366167 0.0005065992590971291 0.00040747964521870017
0.0005718812462873757 0.0005104378215037286 0.0004244295705575496 0.00045086926547810435 0.00045609279186464846 0.0004033375298604369 0.00047108563012443483 0.0005084940930828452
0.0004779276205226779 0.0005506618181243539 0.0004869119147770107 0.00045070506166666746 0.0004255455860402435 0.00043104655924253166 0.0004504473472479731 0.00047008335241116583
0.0004946301341988146 0.000508685247041285 0.0004865500086452812 0.0005001712706871331 0.0004146833380218595 0.0004898824845440686 0.0004963717656210065 0.0004749289946630597
0.0004932258161716163 0.000462885684100911 0.0006811582134105265 0.0004644684959203005 0.0005306496168486774 0.0004492990847211331 0.00039454700890928507 0.00047113437904044986
0.0004269553173799068 0.0006151724955998361 0.0005528759211301804 0.0006372954230755568 0.0004663447034545243 0.00043069032835774124 0.0005167544586583972 0.000513317296281457
0.0004892536671832204 0.0005025519640184939 0.0004460452764760703 0.0006276556523516774 0.0004347990616224706 0.0004957977798767388 0.0005886602448299527 0.0004674264055211097
0.0004753852554131299 0.0004898919723927975 0.0005395892658270895 0.0004519787908066064 0.0005226886132732034 0.0005157653358764946 0.0004458570037968457 0.0004310958320274949
0.0004932193551212549 0.00047279128921218216 0.0005452666082419455 0.000443739554611966 0.0004455030430108309 0.0005274834111332893 0.0006112236296758056 0.0005036043585278094
0.0004661402490455657 0.0004683966690208763 0.0004671812930610031 0.0004900940111838281 0.0004583530535455793 0.0004891746793873608 0.0004777497670147568 0.00048191158566623926
0.0005002875113859773 0.00040677638025954366 0.00041885333484970033 0.0005073140491731465 0.00042290816782042384 0.0005457770312204957 0.00048180820886045694 0.00042969902278855443
0.0004548297147266567 0.00040930183604359627 0.0005829712026752532 0.00047342764446511865 0.00047446839744225144 0.0004992363974452019 0.00048304960364475846 0.00045069828047417104
0.00048050418263301253 0.0006608295952901244 0.00043795816600322723 0.00039958811248652637 0.0004116005729883909 0.0005288405227474868 0.000467263424070552 0.00042478262912482023
0.0005625606863759458 0.0004776570713147521 0.0006548220408149064 0.0005042399279773235 0.0004151348548475653 0.000501873204484582 0.0004430891713127494 0.00046127138193696737
0.0005946379969827831 0.0004951028386130929 0.0004887231043539941 0.0004497133777476847 0.00045235981815494597 0.0005219299928285182 0.0005169372307136655 0.0004248363838996738
0.0004942406667396426 0.0005284228245727718 0.0004356783756520599 0.0005139264976605773 0.00038977552321739495 0.0005998393753543496 0.00045441367547027767 0.00046520924661308527
0.0005542108556255698 0.00042623805347830057 0.00046660826774314046 0.00047507102135568857 0.0005168269854038954 0.0004494425666052848 0.00043201440712437034 0.0004957328783348203
0.00047700118739157915 0.0005203412147238851 0.0004510008147917688 0.00044152731425128877 0.0005298071773722768 0.000500782101880759 0.000398424977902323 0.0004453436122275889
0.0005683103227056563 0.0004537927161436528 0.000504057330545038 0.0004866235831286758 0.0006314461352303624 0.0005253900890238583 0.00046426482731476426 0.0004520531801972538
0.0005992927472107112 0.0004713138041552156 0.00039681693306192756 0.0004514551837928593 0.00045845660497434437 0.0005761823267675936 0.00048691293341107666 0.00045174991828389466
0.0004174894711468369 0.0004560831293929368 0.0004573590122163296 0.0007200338295660913 0.0005756667233072221 0.000500091293361038 0.0004607306618709117 0.00047240473213605583
0.0005011555622331798 0.00040531158447265625 0.00045800156658515334 0.0005073820939287543 0.00047879418707452714 0.0005510292248800397 0.0004446806269697845 0.0004266154719516635
0.0005343736847862601 0.00047843519132584333 0.0004488327831495553 0.0004335902049206197 0.00041146439616568387 0.0004828234377782792 0.0005005463608540595 0.0005586096085608006
0.0004306980990804732 0.0004426574450917542 0.00043492502300068736 0.000523473892826587 0.0005234996206127107 0.0003961605834774673 0.0005149772041477263 0.0005578832933679223
00000000: 0000 00e0 876e 3d3f 0000 0040 8cc3 3b3f
00000010: 0000 00e0 3bd3 403f 0000 0040 e9b0 403f
00000020: 0000 0040 93be 3e3f 0000 0000 49ba 413f
00000030: 0000 0080 43a0 433f 0000 00c0 cf87 3d3f
00000040: 0000 0080 3d15 3f3f 0000 0000 0038 423f
00000050: 0000 00c0 db70 413f 0000 00a0 bcf6 3d3f
00000060: 0000 0080 d86f 3d3f 0000 00a0 fde2 403f
00000070: 0000 00e0 e715 3f3f 0000 0000 9a05 3d3f
00000080: 0000 00c0 b6fd 413f 0000 0040 564c 3e3f
00000090: 0000 00c0 5af9 3f3f 0000 00c0 5691 403f
000000a0: 0000 00c0 8093 3b3f 0000 0060 012b 3e3f
000000b0: 0000 0080 c227 3b3f 0000 0020 5a48 3d3f
000000c0: 0000 00a0 60c7 3e3f 0000 0020 b223 413f
000000d0: 0000 00a0 505c 403f 0000 0060 44e5 3c3f
000000e0: 0000 0040 7a32 403f 0000 0040 7355 3a3f
000000f0: 0000 00e0 5f77 3d3f 0000 0080 56c5 393f
00000100: 0000 00c0 294f 3d3f 0000 0060 b3e4 443f
00000110: 0000 00c0 2fb6 3c3f 0000 00e0 d35b 3a3f
00000120: 0000 0000 2310 3c3f 0000 00c0 d6cb 433f
00000130: 0000 0040 5a64 3d3f 0000 0040 adb0 423f
00000140: 0000 0000 4a39 3c3f 0000 0020 8948 403f
00000150: 0000 00c0 dcd8 3b3f 0000 0060 43bb 393f
00000160: 0000 0060 19d8 3d3f 0000 0060 54f3 413f
00000170: 0000 0000 dc46 403f 0000 00e0 3e24 3f3f
00000180: 0000 00e0 fc99 413f 0000 0020 d574 3a3f
00000190: 0000 0000 bbf8 403f 0000 0080 afbd 3d3f
000001a0: 0000 0040 a50b 423f 0000 00e0 4840 413f
000001b0: 0000 00c0 f018 423f 0000 0040 18c5 413f
000001c0: 0000 0080 9b01 3f3f 0000 00c0 2b08 3d3f
000001d0: 0000 0080 66fd 3f3f 0000 0080 cd6b 403f
000001e0: 0000 0040 8cdd 413f 0000 00c0 55ea 423f
000001f0: 0000 00e0 b3cd 413f 0000 0060 6776 403f
00000200: 0000 0080 2b6e 423f 0000 0080 7193 403f
00000210: 0000 0020 b819 3c3f 0000 0040 afab 403f
00000220: 0000 00e0 a46b 403f 0000 0080 027e 403f
00000230: 0000 00a0 a999 403f 0000 00c0 5fb4 3a3f
00000240: 0000 00a0 49bd 423f 0000 00e0 dcb9 403f
00000250: 0000 0020 bfd0 3b3f 0000 00c0 548c 3d3f
00000260: 0000 00a0 f7e3 3d3f 0000 0080 e16e 3a3f
00000270: 0000 0060 81df 3e3f 0000 00c0 8ea9 403f
00000280: 0000 0080 4b52 3f3f 0000 0040 490b 423f
00000290: 0000 00c0 06e9 3f3f 0000 0080 9389 3d3f
000002a0: 0000 0060 78e3 3b3f 0000 00e0 c23f 3c3f
000002b0: 0000 00a0 4085 3d3f 0000 00a0 b0ce 3e3f
000002c0: 0000 0020 4235 403f 0000 0040 29ab 403f
000002d0: 0000 0060 f4e2 3f3f 0000 00a0 bd63 403f
000002e0: 0000 0060 3b2d 3b3f 0000 00a0 6e0d 403f
000002f0: 0000 0040 de43 403f 0000 0080 fc1f 3f3f
00000300: 0000 0060 7a29 403f 0000 00e0 ee55 3e3f
00000310: 0000 0020 f851 463f 0000 0000 7d70 3e3f
00000320: 0000 0060 6963 413f 0000 00e0 fc71 3d3f
00000330: 0000 0080 66db 393f 0000 00c0 52e0 3e3f
00000340: 0000 0020 1ffb 3b3f 0000 00e0 7028 443f
00000350: 0000 0000 dc1d 423f 0000 0080 05e2 443f
00000360: 0000 0040 f78f 3e3f 0000 00e0 c839 3c3f
00000370: 0000 00c0 d9ee 403f 0000 0080 04d2 403f
00000380: 0000 0040 2808 403f 0000 0020 b677 403f
00000390: 0000 00e0 653b 3d3f 0000 0040 2891 443f
000003a0: 0000 00c0 b77e 3c3f 0000 00a0 0d3f 403f
000003b0: 0000 0040 0a4a 433f 0000 0020 1da2 3e3f
000003c0: 0000 0020 a427 3f3f 0000 0000 830d 403f
000003d0: 0000 0020 67ae 413f 0000 0020 f29e 3d3f
000003e0: 0000 0040 a120 413f 0000 00a0 8de6 403f
000003f0: 0000 0040 3d38 3d3f 0000 0080 9640 3c3f
00000400: 0000 0080 6c29 403f 0000 0020 1ffc 3e3f
00000410: 0000 0020 07de 413f 0000 00e0 b614 3d3f
00000420: 0000 0000 4d32 3d3f 0000 0000 da48 413f
00000430: 0000 00c0 5007 443f 0000 0020 8a80 403f
00000440: 0000 0020 898c 3e3f 0000 0060 64b2 3e3f
00000450: 0000 0060 009e 3e3f 0000 00e0 340f 403f
00000460: 0000 0060 e309 3e3f 0000 00a0 7e07 403f
00000470: 0000 00a0 4f4f 3f3f 0000 0080 2295 3f3f
00000480: 0000 0040 b764 403f 0000 0040 93a8 3a3f
00000490: 0000 0060 3173 3b3f 0000 00a0 a89f 403f
000004a0: 0000 00c0 38b7 3b3f 0000 0040 4fe2 413f
000004b0: 0000 0080 6693 3f3f 0000 0040 2729 3c3f
000004c0: 0000 00c0 c6ce 3d3f 0000 0000 f2d2 3a3f
000004d0: 0000 0020 511a 433f 0000 0040 cc06 3f3f
000004e0: 0000 0040 4218 3f3f 0000 0000 e65b 403f
000004f0: 0000 0040 3aa8 3f3f 0000 0060 7689 3d3f
00000500: 0000 00c0 857d 3f3f 0000 00c0 70a7 453f
00000510: 0000 0000 b8b3 3c3f 0000 00e0 f92f 3a3f
00000520: 0000 0000 83f9 3a3f 0000 0060 3c54 413f
00000530: 0000 0020 619f 3e3f 0000 0080 abd6 3b3f
00000540: 0000 00e0 196f 423f 0000 0080 c14d 3f3f
00000550: 0000 00a0 0b75 453f 0000 0000 df85 403f
00000560: 0000 00a0 ce34 3b3f 0000 0080 0472 403f
00000570: 0000 0080 cd09 3d3f 0000 0080 d93a 3e3f
00000580: 0000 0060 2f7c 433f 0000 0040 3939 403f
00000590: 0000 00e0 b403 403f 0000 0040 f078 3d3f
000005a0: 0000 00a0 56a5 3d3f 0000 0020 441a 413f
000005b0: 0000 0040 62f0 403f 0000 0060 92d7 3b3f
000005c0: 0000 00c0 fd31 403f 0000 0060 bb50 413f
000005d0: 0000 0060 788d 3c3f 0000 00c0 20d7 403f
000005e0: 0000 0020 598b 393f 0000 0040 d1a7 433f
000005f0: 0000 00e0 cbc7 3d3f 0000 0080 ea7c 3e3f
00000600: 0000 00c0 0e29 423f 0000 0080 16ef 3b3f
00000610: 0000 0040 6394 3e3f 0000 0080 5e22 3f3f
00000620: 0000 0080 75ef 403f 0000 0020 6574 3d3f
00000630: 0000 00c0 ff4f 3c3f 0000 0040 823e 403f
00000640: 0000 0080 c042 3f3f 0000 0040 f00c 413f
00000650: 0000 00c0 898e 3d3f 0000 0060 99ef 3c3f
00000660: 0000 0040 585c 413f 0000 0060 dd68 403f
00000670: 0000 0040 761c 3a3f 0000 0040 a02f 3d3f
00000680: 0000 0020 559f 423f 0000 00e0 60bd 3d3f
00000690: 0000 00e0 5684 403f 0000 0060 30e4 3f3f
000006a0: 0000 0040 f4b0 443f 0000 00a0 4a37 413f
000006b0: 0000 0040 126d 3e3f 0000 00a0 31a0 3d3f
000006c0: 0000 0060 3ba3 433f 0000 0060 55e3 3e3f
000006d0: 0000 00c0 7b01 3a3f 0000 0040 2996 3d3f
000006e0: 0000 0020 a00b 3e3f 0000 0020 5ee1 423f
000006f0: 0000 0020 0be9 3f3f 0000 0020 1b9b 3d3f
00000700: 0000 00a0 4f5c 3b3f 0000 0020 cee3 3d3f
00000710: 0000 0000 36f9 3d3f 0000 00e0 1498 473f
00000720: 0000 00e0 0add 423f 0000 00e0 1163 403f
00000730: 0000 0020 c731 3e3f 0000 00e0 a2f5 3e3f
00000740: 0000 0060 ff6b 403f 0000 0000 0090 3a3f
00000750: 0000 00c0 fd03 3e3f 0000 00c0 3aa0 403f
00000760: 0000 0060 d560 3f3f 0000 0040 5e0e 423f
00000770: 0000 00c0 8024 3d3f 0000 0080 6bf5 3b3f
00000780: 0000 00c0 a682 413f 0000 0080 cf5a 3f3f
00000790: 0000 0020 2a6a 3d3f 0000 00c0 6f6a 3c3f
000007a0: 0000 0020 3af7 3a3f 0000 00e0 6ea4 3f3f
000007b0: 0000 0020 e366 403f 0000 0000 f54d 423f
000007c0: 0000 0040 ea39 3c3f 0000 0040 8f02 3d3f
000007d0: 0000 00c0 d480 3c3f 0000 00a0 3727 413f
000007e0: 0000 00e0 6e27 413f 0000 00c0 78f6 393f
000007f0: 0000 0020 f1df 403f 0000 0040 dd47 423f

cpu f8 [128]
0.0001716596889309585 0.00016654771752655506 0.0001829027896746993 0.00016272818902507424 0.00016901256458368152 0.00017026709974743426 0.0001757318968884647 0.00019137961498927325
0.00019351202354300767 0.00016980906366370618 0.0002194830303778872 0.0002084584120893851 0.0001988465228350833 0.0001676401443546638 0.00016529447748325765 0.00015378202078863978
0.00016840000171214342 0.00018164592620451003 0.00015672236622776836 0.00019857210281770676 0.00018221704522147775 0.00017214860417880118 0.00021237836335785687 0.00019173696637153625
0.0001865207450464368 0.00016914610750973225 0.0001831342960940674 0.00017684292106423527 0.0001600710820639506 0.00021317394566722214 0.0002226206852355972 0.00016517612675670534
0.00019312727090436965 0.00018700353393796831 0.00015657322364859283 0.00017471655155532062 0.00020691557438112795 0.00017287836817558855 0.0002074865042231977 0.00018491270020604134
0.00016829263768158853 0.0001881748903542757 0.00019292242359369993 0.00018416224338579923 0.00018946087220683694 0.0001815809082472697 0.00017768847465049475 0.00018525123596191406
0.00019787366909440607 0.00020989649055991322 0.00019857045845128596 0.00020630132348742336 0.0002342540246900171 0.00019512329890858382 0.00018999470921698958 0.00015433771477546543
0.00016649234748911113 0.00018222283688373864 0.00021045448374934494 0.00017045730783138424 0.00018172005366068333 0.00018681134679354727 0.00019217083172407 0.0001903808006318286
0.00018477892444934696 0.00016973096353467554 0.00018716669001150876 0.00021107500651851296 0.00014356317115016282 0.0001858915202319622 0.00018366730364505202 0.0002094324299832806
0.0001589635940035805 0.00018248060951009393 0.00015827117022126913 0.00016846154176164418 0.0001780731399776414 0.0001618659298401326 0.0001858596078818664 0.00018091071979142725
0.00019895131117664278 0.00019361845625098795 0.0001933206367539242 0.00018977165746036917 0.00016998926002997905 0.00017590340576134622 0.00018764656851999462 0.0002030834584729746
0.00020289218809921294 0.00015797262312844396 0.00019165538833476603 0.00017899399972520769 0.00017736588779371232 0.0001933256135089323 0.00019467162201181054 0.0002268944081151858
0.00016170949675142765 0.00018720833759289235 0.0001854009460657835 0.0001714891113806516 0.00020443637913558632 0.00019741524010896683 0.000227185373660177 0.0001789777452358976
0.00021246906544547528 0.0001951577141880989 0.00018380724941380322 0.0001807059597922489 0.00019345182226970792 0.000158508715685457 0.00017586252943146974 0.00022601033560931683
0.0001610510953469202 0.00022401183377951384 0.00019520748173817992 0.00021788160665892065 0.0001820050529204309 0.00018536558491177857 0.00023968117602635175 0.0001814817078411579
0.00017951974587049335 0.00022263872961048037 0.00019386023632250726 0.0001794199924916029 0.00018178204481955618 0.0002010788448387757 0.00017515369108878076 0.00018978252774104476
00000000: 0000 0080 f17f 263f 0000 0000 6ad4 253f
00000010: 0000 0000 33f9 273f 0000 0080 4054 253f
00000020: 0000 00e0 1e27 263f 0000 0040 3751 263f
00000030: 0000 0080 9508 273f 0000 0060 a215 293f
00000040: 0000 00a0 2f5d 293f 0000 00c0 d841 263f
00000050: 0000 00e0 a0c4 2c3f 0000 0020 b452 2b3f
00000060: 0000 00a0 2e10 2a3f 0000 00e0 11f9 253f
00000070: 0000 00c0 5caa 253f 0000 0080 1128 243f
00000080: 0000 0000 9112 263f 0000 00a0 06cf 273f
00000090: 0000 00e0 ba8a 243f 0000 0060 f906 2a3f
000000a0: 0000 0080 30e2 273f 0000 0040 5990 263f
000000b0: 0000 0040 3cd6 2b3f 0000 0000 a021 293f
000000c0: 0000 0000 9972 283f 0000 0000 9a2b 263f
000000d0: 0000 00a0 f700 283f 0000 0020 dd2d 273f
000000e0: 0000 0020 18fb 243f 0000 0040 eef0 2b3f
000000f0: 0000 0020 e92d 2d3f 0000 0020 64a6 253f
00000100: 0000 00a0 4650 293f 0000 0020 cc82 283f
00000110: 0000 00c0 b985 243f 0000 00c0 83e6 263f
00000120: 0000 0040 ef1e 2b3f 0000 00e0 d5a8 263f
00000130: 0000 0080 1732 2b3f 0000 0000 a43c 283f
00000140: 0000 00c0 f60e 263f 0000 0000 1aaa 283f
00000150: 0000 0000 6749 293f 0000 00a0 7523 283f
00000160: 0000 0080 40d5 283f 0000 0020 d8cc 273f
00000170: 0000 0060 3c4a 273f 0000 0000 0048 283f
00000180: 0000 00e0 89ef 293f 0000 0020 f582 2b3f
00000190: 0000 0040 eb06 2a3f 0000 00e0 520a 2b3f
000001a0: 0000 00c0 42b4 2e3f 0000 0060 4093 293f
000001b0: 0000 0020 2ae7 283f 0000 00e0 b63a 243f
000001c0: 0000 0060 8ed2 253f 0000 0040 62e2 273f
000001d0: 0000 0040 ae95 2b3f 0000 0020 9957 263f
000001e0: 0000 0060 83d1 273f 0000 0040 597c 283f
000001f0: 0000 00e0 2e30 293f 0000 00a0 1ef4 283f
00000200: 0000 00e0 2638 283f 0000 00e0 393f 263f
00000210: 0000 00a0 4588 283f 0000 0080 80aa 2b3f
00000220: 0000 0040 2ed1 223f 0000 0000 7c5d 283f
00000230: 0000 0020 da12 283f 0000 00e0 6273 2b3f
00000240: 0000 00e0 eed5 243f 0000 0080 08eb 273f
00000250: 0000 0000 b3be 243f 0000 00a0 a114 263f
00000260: 0000 00a0 2457 273f 0000 00c0 5137 253f
00000270: 0000 00e0 695c 283f 0000 0040 5bb6 273f
00000280: 0000 00c0 b213 2a3f 0000 00e0 c160 293f
00000290: 0000 00a0 c356 293f 0000 0020 aedf 283f
000002a0: 0000 00a0 e447 263f 0000 00c0 560e 273f
000002b0: 0000 00c0 5f98 283f 0000 00a0 599e 2a3f
000002c0: 0000 00a0 ee97 2a3f 0000 0080 aeb4 243f
000002d0: 0000 0040 e31e 293f 0000 00c0 0a76 273f
000002e0: 0000 0060 693f 273f 0000 0060 ee56 293f
000002f0: 0000 0080 1884 293f 0000 0020 50bd 2d3f
00000300: 0000 0000 1232 253f 0000 0060 ab89 283f
00000310: 0000 0000 064d 283f 0000 0040 387a 263f
00000320: 0000 0020 bfcb 2a3f 0000 0000 28e0 293f
00000330: 0000 0080 13c7 2d3f 0000 0020 7f75 273f
00000340: 0000 0060 47d9 2b3f 0000 0000 6894 293f
00000350: 0000 0040 8c17 283f 0000 0060 7caf 273f
00000360: 0000 0080 2a5b 293f 0000 0080 abc6 243f
00000370: 0000 00a0 f70c 273f 0000 0000 a69f 2d3f
00000380: 0000 0060 fa1b 253f 0000 0000 975c 2d3f
00000390: 0000 0080 1396 293f 0000 00c0 e48e 2c3f
000003a0: 0000 0080 13db 273f 0000 0040 d64b 283f
000003b0: 0000 00a0 5d6a 2f3f 0000 0000 84c9 273f
000003c0: 0000 00e0 ae87 273f 0000 0020 842e 2d3f
000003d0: 0000 00c0 de68 293f 0000 0000 5684 273f
000003e0: 0000 00e0 97d3 273f 0000 0020 165b 2a3f
000003f0: 0000 00c0 2ef5 263f 0000 0080 0be0 283f

transformer.h.0.ln_2.weight f4 [128]
1.0084333 1.0166534 1.0173016 1.0004338 0.98271406 1.0179768 0.9980942 1.0035778
1.006605 0.9916511 1.0027531 1.011029 1.0218945 1.001624 0.9944602 0.99839973
1.005795 0.994091 1.008117 1.0063444 1.0140656 1.0076822 1.007662 0.99703383
1.0169185 1.0096895 0.99010366 1.024654 1.0300345 1.0012392 1.008435 1.0197691
0.99717927 1.0023746 1.0123689 1.0163683 1.0194201 1.0073634 1.0211791 1.014067
0.99914795 1.0137882 1.0303972 0.9857334 1.0025464 1.011922 1.0033555 1.0129869
1.0090289 1.0182624 0.9731976 1.0028446 1.005015 0.9979881 1.0073397 0.99620885
1.005992 1.0035776 1.0090897 1.0083945 1.0136422 1.0075047 1.0026138 1.0110604
1.0170008 1.0057265 1.0031103 1.0049603 1.0123485 0.98911446 1.006975 1.0020244
1.009732 1.0060586 1.0220906 1.025586 1.0070084 1.0005727 1.00272 1.0067016
1.0197942 0.9953983 0.9995526 1.0022308 1.0212464 1.0289038 1.0073481 1.0073
1.0075814 1.0052319 1.023325 1.0291452 1.0052314 1.0174605 1.0009395 0.9962959
1.0181352 0.9978222 1.0231379 1.0001589 1.0107447 1.0011879 1.0235754 0.99425215
1.0277998 1.014253 1.0132543 1.0075253 1.0043924 1.0051405 1.0313051 1.0125872
1.0002438 1.012476 1.0191159 0.99893934 0.9945636 1.0116643 1.0087783 0.996143
0.9971977 0.9882635 1.0112433 1.0015749 1.0073816 0.99970704 1.017706 1.0183109
00000000: 5814 813f b321 823f f036 823f 370e 803f
00000010: 2693 7b3f 104d 823f 1a83 7f3f 3d75 803f
00000020: 6fd8 803f d9dc 7d3f 375a 803f 6669 813f
00000030: 70cd 823f 3735 803f f294 7e3f 2097 7f3f
00000040: e4bd 803f bf7c 7e3f fa09 813f e5cf 803f
00000050: e7cc 813f bbfb 803f 12fb 803f 9c3d 7f3f
00000060: 632a 823f 813d 813f 6f77 7d3f dd27 833f
00000070: 2cd8 833f 9b28 803f 6614 813f cb87 823f
00000080: 2447 7f3f d04d 803f 4e95 813f 5b18 823f
00000090: 5c7c 823f 49f1 803f ffb5 823f f3cc 813f
000000a0: 29c8 7f3f d0c3 813f 0ee4 833f 0659 7c3f
000000b0: 7153 803f a986 813f f46d 803f 8ea9 813f
000000c0: dc27 813f 6c56 823f 7a23 793f 365d 803f
000000d0: 55a4 803f 267c 7f3f 82f0 803f 8b07 7f3f
000000e0: 59c4 803f 3b75 803f da29 813f 1213 813f
000000f0: 07bf 813f eaf5 803f a655 803f 6d6a 813f
00000100: 152d 823f a5bb 803f eb65 803f 8aa2 803f
00000110: a394 813f 9b36 7d3f 8fe4 803f 5642 803f
00000120: e63e 813f 87c6 803f ddd3 823f 6746 833f
00000130: a7e5 803f c412 803f 2159 803f 99db 803f
00000140: 9e88 823f 6cd2 7e3f aee2 7f3f 1949 803f
00000150: 34b8 823f 1fb3 833f c8f0 803f 35ef 803f
00000160: 6df8 803f 70ab 803f 50fc 823f 08bb 833f
00000170: 6cab 803f 253c 823f c91e 803f 400d 7f3f
00000180: 4152 823f 4771 7f3f 2ff6 823f 3505 803f
00000190: 1560 813f ed26 803f 8504 833f 4f87 7e3f
000001a0: f28e 833f 0bd3 813f 51b2 813f 97f6 803f
000001b0: ee8f 803f 72a8 803f ce01 843f 759c 813f
000001c0: fd07 803f d098 813f 6472 823f 7dba 7f3f
000001d0: b89b 7e3f 377e 813f a61f 813f 3a03 7f3f
000001e0: 5948 7f3f d6fe 7c3f 6c70 813f 9b33 803f
000001f0: e1f1 803f cdec 7f3f 3144 823f 0358 823f

cpu f8 [512]
0.00046442009625025094 0.0004348525544628501 0.0004639803373720497 0.0003406801843084395 0.00044203794095665216 0.00045711876009590924 0.00046437486889772117 0.0006549670943059027
0.0004812914412468672 0.00040935486322268844 0.0004991023452021182 0.000444120290922001 0.0004510930448304862 0.0005511842318810523 0.00046504748752340674 0.0004403754137456417
0.0003950280952267349 0.0004060767823830247 0.0004717984120361507 0.0004715825489256531 0.00039882175042293966 0.000374261086108163 0.0005290158442221582 0.0005503101274371147
0.0004819208988919854 0.0004886972601525486 0.0005239369347691536 0.00035045199911110103 0.0004967738641425967 0.0004412453854456544 0.0004959108191542327 0.000414918438764289
0.0005025662248954177 0.00047952213208191097 0.00042008282616734505 0.000474254455184564 0.0004256351967342198 0.0004887667018920183 0.00044966157292947173 0.00042194651905447245
0.00048545681056566536 0.00044432198046706617 0.0004483093216549605 0.00045301232603378594 0.0004592839104589075 0.0004531566519290209 0.0004330670344643295 0.0004797017900273204
0.00044755174894817173 0.0004526143311522901 0.0004491663130465895 0.0004103191604372114 0.0004993831971660256 0.0004008486866950989 0.0004708630731329322 0.0004226971650496125
0.0004931511357426643 0.0004291794029995799 0.00035585308796726167 0.000479315931443125 0.0005877162329852581 0.0005730015691369772 0.00045198039151728153 0.0005001940880902112
0.00047152358456514776 0.00047986608115024865 0.0004526976845227182 0.00048711319686844945 0.0004309604410082102 0.0004714788228739053 0.0004873572615906596 0.0004928949056193233
0.00060156179824844 0.0004653091018553823 0.0004248156037647277 0.000408357911510393 0.0005128145567141473 0.00045928804320283234 0.0004494783643167466 0.0003819983685389161
0.0004833106941077858 0.0005096698878332973 0.0004488375270739198 0.0005243621417321265 0.0004888874827884138 0.0005003027617931366 0.00041742349276319146 0.00040471897227689624
0.00047178720706142485 0.00039648532401770353 0.000498579116538167 0.0004914988530799747 0.0004740067815873772 0.0004409737593960017 0.00037633799365721643 0.0005925352452322841
0.0004726707120425999 0.0004569804877974093 0.00044143074774183333 0.00041696272091940045 0.0005553739611059427 0.0004164009587839246 0.00045686421799473464 0.0005044740391895175
0.0003928094811271876 0.0006162361823953688 0.000518611806910485 0.0003590826818253845 0.0004340524901635945 0.00047406338853761554 0.0005751620628871024 0.0004251398204360157
0.0004897149628959596 0.0004929949645884335 0.000465141492895782 0.00038234240491874516 0.0004215928493067622 0.00044910077122040093 0.00043065991485491395 0.00040585437091067433
0.0005123518058098853 0.0005165632464922965 0.0003471638774499297 0.0004890590207651258 0.000513903854880482 0.000523255905136466 0.0004243800067342818 0.0003993446007370949
0.0005103530711494386 0.00048514941590838134 0.00046568646212108433 0.00040389501373283565 0.0005110501660965383 0.0005266134394332767 0.0003618797054514289 0.0004201079427730292
0.00042743782978504896 0.00039709906559437513 0.0004827791708521545 0.0004972569877281785 0.0003832454385701567 0.00037055459688417614 0.0003735363425221294 0.0005781202926300466
0.0005469482857733965 0.0004309457144699991 0.00047945723053999245 0.0005033393390476704 0.0004896525060757995 0.00040817202534526587 0.0004597247752826661 0.00042831350583583117
0.00047412910498678684 0.0003946499200537801 0.00044023460941389203 0.0005544198793359101 0.0005008569569326937 0.0003772208874579519 0.0004807559016626328 0.0006627151160500944
0.00044270881335251033 0.0004829463141504675 0.00042720328201539814 0.00038478622445836663 0.000492240593302995 0.0004851994744967669 0.00041492891614325345 0.00041557414806447923
0.000478298868983984 0.0005147136398591101 0.0004263602604623884 0.0004925158573314548 0.0004266324976924807 0.00040895413258112967 0.00045835261698812246 0.0005306412931531668
0.0004385557258501649 0.0004077359917573631 0.00048396267811767757 0.00043356415699236095 0.0005451319157145917 0.0004864609509240836 0.0004115105839446187 0.0005753884324803948
0.00044558715308085084 0.0004257716645952314 0.0004768058133777231 0.0004019104817416519 0.0004137768701184541 0.00043336243834346533 0.0003763791755773127 0.0006445187027566135
0.0005721269990317523 0.0004681472200900316 0.00038527633296325803 0.0004311493830755353 0.0006229258724488318 0.00047716015251353383 0.00046463159378618 0.00047597341472283006
0.0004185426514595747 0.00042177498107776046 0.0004203866410534829 0.0004305257461965084 0.0004803186166100204 0.0004508296842686832 0.0004465412930585444 0.0004244682495482266
0.0005201485473662615 0.00042744065285660326 0.0004683892475441098 0.0004453489964362234 0.0004889993579126894 0.0005437890067696571 0.000464792043203488 0.0004474344023037702
0.0004954073228873312 0.0005521071725524962 0.0003800004778895527 0.0004224397416692227 0.0004570663149934262 0.00042276454041711986 0.0004471614374779165 0.0005979568231850863
0.0004967901622876525 0.0004404672945383936 0.0004464041849132627 0.0004689256311394274 0.00041792812407948077 0.0004166283761151135 0.0004611909098457545 0.00044578095548786223
0.0005021920660510659 0.00046106474474072456 0.00041924079414457083 0.0004457761824596673 0.0004202623385936022 0.00047693707165308297 0.0004227711178828031 0.0005673749255947769
0.0005377697525545955 0.0004736843111459166 0.00047755264677107334 0.0004054883902426809 0.0004782741016242653 0.0004412267589941621 0.00037913903361186385 0.0004330312949605286
0.00041702212183736265 0.00043634185567498207 0.00046184597886167467 0.000455483648693189 0.0004659131227526814 0.0004850152472499758 0.0004739929281640798 0.00042740508797578514
00000000: 0000 0020 ad6f 3e3f 0000 0080 9d7f 3c3f
00000010: 0000 0060 4c68 3e3f 0000 0040 aa53 363f
00000020: 0000 0080 2af8 3c3f 0000 0020 2ef5 3d3f
00000030: 0000 00e0 ea6e 3e3f 0000 0020 4376 453f
00000040: 0000 0000 bb8a 3f3f 0000 00c0 d5d3 3a3f
00000050: 0000 0020 c65a 403f 0000 0020 1a1b 3d3f
00000060: 0000 00e0 1590 3d3f 0000 0020 ab0f 423f
00000070: 0000 00c0 337a 3e3f 0000 0000 46dc 3c3f
00000080: 0000 00c0 78e3 393f 0000 0080 d69c 3a3f
00000090: 0000 00c0 76eb 3e3f 0000 00a0 d7e7 3e3f
000000a0: 0000 0060 1e23 3a3f 0000 0020 0f87 383f
000000b0: 0000 00e0 b455 413f 0000 0000 5608 423f
000000c0: 0000 0080 4a95 3f3f 0000 0060 7d03 403f
000000d0: 0000 0000 1a2b 413f 0000 00e0 9bf7 363f
000000e0: 0000 00c0 3d47 403f 0000 0080 deea 3c3f
000000f0: 0000 0060 0040 403f 0000 0020 2d31 3b3f
00000100: 0000 00c0 d477 403f 0000 00e0 0b6d 3f3f
00000110: 0000 0000 d287 3b3f 0000 0060 ab14 3f3f
00000120: 0000 0040 f9e4 3b3f 0000 0080 1204 403f
00000130: 0000 00c0 1178 3d3f 0000 0080 16a7 3b3f
00000140: 0000 0020 9dd0 3f3f 0000 0060 7c1e 3d3f
00000150: 0000 00e0 6161 3d3f 0000 0020 49b0 3d3f
00000160: 0000 0060 8119 3e3f 0000 0000 b5b2 3d3f
00000170: 0000 00c0 a861 3c3f 0000 0080 0f70 3f3f
00000180: 0000 0020 ac54 3d3f 0000 00c0 9ba9 3d3f
00000190: 0000 00a0 c26f 3d3f 0000 0060 03e4 3a3f
000001a0: 0000 0040 215d 403f 0000 0000 2045 3a3f
000001b0: 0000 0080 c5db 3e3f 0000 0080 aeb3 3b3f
000001c0: 0000 0000 da28 403f 0000 0080 6f20 3c3f
000001d0: 0000 0060 3952 373f 0000 0040 9669 3f3f
000001e0: 0000 0000 1f42 433f 0000 0080 afc6 423f
000001f0: 0000 0000 f99e 3d3f 0000 00a0 ee63 403f
00000200: 0000 0060 dae6 3e3f 0000 0020 d172 3f3f
00000210: 0000 00c0 01ab 3d3f 0000 0040 67ec 3f3f
00000220: 0000 0000 513e 3c3f 0000 0020 1ae6 3e3f
00000230: 0000 0080 7ff0 3f3f 0000 00c0 b326 403f
00000240: 0000 0020 44b6 433f 0000 0060 977e 3e3f
00000250: 0000 0020 39d7 3b3f 0000 00e0 1bc3 3a3f
00000260: 0000 00e0 cccd 403f 0000 0020 9319 3e3f
00000270: 0000 00e0 fe74 3d3f 0000 0080 de08 393f
00000280: 0000 00a0 9bac 3f3f 0000 00c0 6bb3 403f
00000290: 0000 0080 3e6a 3d3f 0000 0020 ab2e 413f
000002a0: 0000 00e0 1505 403f 0000 0000 d864 403f
000002b0: 0000 0040 345b 3b3f 0000 00c0 0e86 3a3f
000002c0: 0000 00a0 46eb 3e3f 0000 0080 ebfb 393f
000002d0: 0000 0080 6256 403f 0000 00c0 fd1a 403f
000002e0: 0000 00a0 8310 3f3f 0000 00e0 4fe6 3c3f
000002f0: 0000 0060 e7a9 383f 0000 00c0 8b6a 433f
00000300: 0000 0040 19fa 3e3f 0000 0040 dcf2 3d3f
00000310: 0000 00a0 faed 3c3f 0000 0040 7953 3b3f
00000320: 0000 0080 d032 423f 0000 0080 0c4a 3b3f
00000330: 0000 00e0 e8f0 3d3f 0000 00c0 d587 403f
00000340: 0000 00e0 3fbe 393f 0000 0020 5d31 443f
00000350: 0000 0060 6efe 403f 0000 0060 6888 373f
00000360: 0000 0040 3172 3c3f 0000 00c0 7611 3f3f
00000370: 0000 0020 cfd8 423f 0000 00a0 a9dc 3b3f
00000380: 0000 00e0 060c 403f 0000 00a0 8a27 403f
00000390: 0000 0080 c77b 3e3f 0000 0020 a40e 393f
000003a0: 0000 0080 27a1 3b3f 0000 0020 a96e 3d3f
000003b0: 0000 0040 4639 3c3f 0000 0040 1b99 3a3f
000003c0: 0000 0020 ebc9 403f 0000 0020 3fed 403f
000003d0: 0000 0080 71c0 363f 0000 0040 8606 403f
000003e0: 0000 0020 f0d6 403f 0000 0080 6325 413f
000003f0: 0000 0040 eacf 3b3f 0000 0000 e42b 3a3f
00000400: 0000 00e0 26b9 403f 0000 00e0 74cb 3f3f
00000410: 0000 0020 ec84 3e3f 0000 00e0 3b78 3a3f
00000420: 0000 00e0 ffbe 403f 0000 00c0 8d41 413f
00000430: 0000 0080 55b7 373f 0000 00e0 3d88 3b3f
00000440: 0000 0080 3703 3c3f 0000 0080 3706 3a3f
00000450: 0000 00c0 b0a3 3f3f 0000 0040 4b4b 403f
00000460: 0000 00a0 ca1d 393f 0000 00e0 df48 383f
00000470: 0000 0060 e67a 383f 0000 00e0 9ff1 423f
00000480: 0000 0080 22ec 413f 0000 00c0 113e 3c3f
00000490: 0000 0020 f56b 3f3f 0000 0000 517e 403f
000004a0: 0000 00c0 800b 403f 0000 0080 fdbf 3a3f
000004b0: 0000 00e0 e620 3e3f 0000 0080 e811 3c3f
000004c0: 0000 0000 9112 3f3f 0000 0080 20dd 393f
000004d0: 0000 0040 e9d9 3c3f 0000 00a0 cf2a 423f
000004e0: 0000 0020 7e69 403f 0000 0060 b7b8 383f
000004f0: 0000 00e0 be81 3f3f 0000 00e0 41b7 453f
00000500: 0000 00e0 6b03 3d3f 0000 00a0 7ea6 3f3f
00000510: 0000 0020 48ff 3b3f 0000 0040 a437 393f
00000520: 0000 00a0 3621 403f 0000 00e0 4bcc 3f3f
00000530: 0000 0020 5a31 3b3f 0000 0060 2d3c 3b3f
00000540: 0000 0000 8658 3f3f 0000 0020 bbdd 403f
00000550: 0000 0060 23f1 3b3f 0000 00c0 8523 403f
00000560: 0000 00a0 b4f5 3b3f 0000 00a0 1ccd 3a3f
00000570: 0000 0080 e109 3e3f 0000 0080 5763 413f
00000580: 0000 0080 bebd 3c3f 0000 00c0 acb8 3a3f
00000590: 0000 00e0 8bb7 3f3f 0000 00e0 ff69 3c3f
000005a0: 0000 00e0 e5dc 413f 0000 00e0 75e1 3f3f
000005b0: 0000 0080 00f8 3a3f 0000 0040 b5da 423f
000005c0: 0000 0040 b633 3d3f 0000 0060 43e7 3b3f
000005d0: 0000 0060 793f 3f3f 0000 0060 f056 3a3f
000005e0: 0000 0020 061e 3b3f 0000 0080 9d66 3c3f
000005f0: 0000 0040 98aa 383f 0000 0060 9d1e 453f
00000600: 0000 0060 59bf 423f 0000 0000 35ae 3e3f
00000610: 0000 0040 dd3f 393f 0000 0080 7c41 3c3f
00000620: 0000 0020 7b69 443f 0000 0040 6b45 3f3f
00000630: 0000 0080 3973 3e3f 0000 0040 8231 3f3f
00000640: 0000 0000 fb6d 3b3f 0000 00c0 35a4 3b3f
00000650: 0000 00e0 ea8c 3b3f 0000 0000 0637 3c3f
00000660: 0000 00c0 687a 3f3f 0000 00c0 aa8b 3d3f
00000670: 0000 0040 b843 3d3f 0000 0040 65d1 3b3f
00000680: 0000 0080 520b 413f 0000 00a0 4303 3c3f
00000690: 0000 0080 44b2 3e3f 0000 0060 b72f 3d3f
000006a0: 0000 0020 0606 403f 0000 0000 a2d1 413f
000006b0: 0000 00a0 ea75 3e3f 0000 0020 b452 3d3f
000006c0: 0000 0020 c73b 403f 0000 0020 6917 423f
000006d0: 0000 00a0 59e7 383f 0000 00e0 5caf 3b3f
000006e0: 0000 00e0 4cf4 3d3f 0000 00e0 cfb4 3b3f
000006f0: 0000 00c0 1f4e 3d3f 0000 0080 0698 433f
00000700: 0000 00c0 6047 403f 0000 00a0 d0dd 3c3f
00000710: 0000 0060 6b41 3d3f 0000 0040 44bb 3e3f
00000720: 0000 00a0 ab63 3b3f 0000 0040 dd4d 3b3f
00000730: 0000 00e0 7f39 3e3f 0000 00a0 f636 3d3f
00000740: 0000 0040 b174 403f 0000 0000 6237 3e3f
00000750: 0000 0080 b179 3b3f 0000 0020 e236 3d3f
00000760: 0000 0000 d58a 3b3f 0000 0020 ad41 3f3f
00000770: 0000 0020 ecb4 3b3f 0000 0060 7c97 423f
00000780: 0000 00c0 239f 413f 0000 00a0 1a0b 3f3f
00000790: 0000 0000 014c 3f3f 0000 0060 f792 3a3f
000007a0: 0000 00a0 1b58 3f3f 0000 0080 8eea 3c3f
000007b0: 0000 00c0 e5d8 383f 0000 0040 0f61 3c3f
000007c0: 0000 0060 7854 3b3f 0000 0000 9a98 3c3f
000007d0: 0000 0060 7d44 3e3f 0000 0060 bfd9 3d3f
000007e0: 0000 00a0 b988 3e3f 0000 00a0 34c9 3f3f
000007f0: 0000 0020 4810 3f3f 0000 00e0 aa02 3c3f

cpu f8 [128]
0.0002188665239373222 0.00021632823336403817 0.00023177936964202672 0.00022989208810031414 0.00022256601369008422 0.00023421579680871218 0.00022773275850340724 0.00021008819749113172
0.00020126499293837696 0.00021972807007841766 0.0002047227753791958 0.0002355345932301134 0.0001993510959437117 0.00023464634432457387 0.00020981827401556075 0.00018131711112800986
0.00021879537962377071 0.00020119422697462142 0.0002033559139817953 0.00023837473418097943 0.00019441856420598924 0.000221363763557747 0.0002319467457709834 0.00023438136850018054
0.00021124142222106457 0.00022305679158307612 0.00020308203238528222 0.00025221312534995377 0.0002185824268963188 0.0002232123224530369 0.00021289268624968827 0.00021744277910329401
0.00017569698684383184 0.00019127871200907975 0.00021956920681986958 0.00021806747827213258 0.00021518558787647635 0.000217822176637128 0.00021486652258317918 0.00021135965653229505
0.0002023901033680886 0.00025850915699265897 0.00024190271506085992 0.00020876599592156708 0.00022333639208227396 0.00024491516523994505 0.00024043516896199435 0.00020773900905624032
0.00022907383390702307 0.00021470554929692298 0.0002363899111514911 0.0002259948232676834 0.00021761481184512377 0.00021378776000346988 0.00023494464403484017 0.00021758249204140157
0.000240854307776317 0.0002026464499067515 0.00023457140196114779 0.00020093400962650776 0.0002082676801364869 0.00021284061949700117 0.00023783465439919382 0.00023429447901435196
0.0002002577093662694 0.00023785571102052927 0.00022263018763624132 0.00021184654906392097 0.0001997071085497737 0.0001872839784482494 0.0002217513247160241 0.000215924417716451
0.00020433256577234715 0.00022511045972350985 0.00022744116722606122 0.00020811108697671443 0.00025084876688197255 0.00020902302640024573 0.0002526699099689722 0.00023668028006795794
0.00020157730614300817 0.0002072577044600621 0.00020897563081234694 0.00021804323478136212 0.00021749385632574558 0.00020606872567441314 0.00020310583931859583 0.00020165255409665406
0.0002261006593471393 0.00018586059741210192 0.00023165489255916327 0.00022853852715343237 0.00021137578005436808 0.00020213371317368 0.00022008478117641062 0.0002224455092800781
0.00020929932361468673 0.00020634446991607547 0.00023423366656061262 0.0002137160045094788 0.0002441690885461867 0.00019415277347434312 0.0002054768119705841 0.0002208629302913323
0.00020670046797022223 0.000195332890143618 0.00018929524230770767 0.00024252203002106398 0.0002235558204120025 0.00025627357535995543 0.0002254351129522547 0.00020584922458510846
0.00023149252228904516 0.00020517793018370867 0.00021425270824693143 0.0002034909266512841 0.00024123169714584947 0.00020994902297388762 0.0002153756795451045 0.00022312697547022253
0.00020550207409542054 0.00022044913202989846 0.00019161435193382204 0.0002509315963834524 0.00021328309958335012 0.00022050838742870837 0.0002185210323659703 0.00022701258421875536
00000000: 0000 0020 f1af 2c3f 0000 0060 c55a 2c3f
00000010: 0000 00a0 3961 2e3f 0000 0000 e621 2e3f
00000020: 0000 0080 132c 2d3f 0000 0060 fab2 2e3f
00000030: 0000 0080 71d9 2d3f 0000 00e0 6389 2b3f
00000040: 0000 0020 5561 2a3f 0000 00c0 d9cc 2c3f
00000050: 0000 0040 5bd5 2a3f 0000 00c0 3adf 2e3f
00000060: 0000 00e0 1c21 2a3f 0000 00c0 6cc1 2e3f
00000070: 0000 0040 5580 2b3f 0000 0020 fec3 273f
00000080: 0000 0000 8ead 2c3f 0000 0040 f55e 2a3f
00000090: 0000 0000 7ea7 2a3f 0000 0060 873e 2f3f
000000a0: 0000 00c0 9a7b 293f 0000 0040 bc03 2d3f
000000b0: 0000 0060 d766 2e3f 0000 00a0 88b8 2e3f
000000c0: 0000 0000 16b0 2b3f 0000 0040 8b3c 2d3f
000000d0: 0000 0060 4d9e 2a3f 0000 0020 6f87 303f
000000e0: 0000 00c0 68a6 2c3f 0000 0040 c341 2d3f
000000f0: 0000 0040 7ee7 2b3f 0000 0040 2b80 2c3f
00000100: 0000 00a0 6907 273f 0000 00a0 3f12 293f
00000110: 0000 0020 85c7 2c3f 0000 0060 2195 2c3f
00000120: 0000 0020 6e34 2c3f 0000 0040 e68c 2c3f
00000130: 0000 0060 b929 2c3f 0000 00a0 0db4 2b3f
00000140: 0000 00c0 1587 2a3f 0000 0060 10f1 303f
00000150: 0000 0080 e8b4 2f3f 0000 0040 065d 2b3f
00000160: 0000 0000 ed45 2d3f 0000 00a0 fe0c 303f
00000170: 0000 0060 aa83 2f3f 0000 0080 903a 2b3f
00000180: 0000 0040 7106 2e3f 0000 00a0 5224 2c3f
00000190: 0000 00e0 edfb 2e3f 0000 00c0 209f 2d3f
000001a0: 0000 0000 f185 2c3f 0000 00e0 8605 2c3f
000001b0: 0000 0020 6fcb 2e3f 0000 0060 db84 2c3f
000001c0: 0000 00c0 ba91 2f3f 0000 00c0 af8f 2a3f
000001d0: 0000 0000 e9be 2e3f 0000 0000 3a56 2a3f
000001e0: 0000 00c0 4d4c 2b3f 0000 0000 bfe5 2b3f
000001f0: 0000 0020 682c 2f3f 0000 0040 9eb5 2e3f
00000200: 0000 00a0 883f 2a3f 0000 0000 1d2d 2f3f
00000210: 0000 00c0 3a2e 2d3f 0000 0000 64c4 2b3f
00000220: 0000 0000 0f2d 2a3f 0000 0020 358c 283f
00000230: 0000 0060 bd10 2d3f 0000 00a0 384d 2c3f
00000240: 0000 0060 43c8 2a3f 0000 0020 7481 2d3f
00000250: 0000 00c0 a8cf 2d3f 0000 00a0 0c47 2b3f
00000260: 0000 0040 8b70 303f 0000 0020 a665 2b3f
00000270: 0000 0000 198f 303f 0000 0020 ac05 2f3f
00000280: 0000 00e0 cf6b 2a3f 0000 0020 6a2a 2b3f
00000290: 0000 0000 0f64 2b3f 0000 0020 5194 2c3f
000002a0: 0000 0000 e281 2c3f 0000 00e0 8402 2b3f
000002b0: 0000 00e0 199f 2a3f 0000 0040 566e 2a3f
000002c0: 0000 00e0 ada2 2d3f 0000 0060 725c 283f
000002d0: 0000 0060 0c5d 2e3f 0000 0000 7bf4 2d3f
000002e0: 0000 0020 98b4 2b3f 0000 0060 7b7e 2a3f
000002f0: 0000 00e0 d1d8 2c3f 0000 0060 0828 2d3f
00000300: 0000 0080 eb6e 2b3f 0000 0080 c50b 2b3f
00000310: 0000 00e0 93b3 2e3f 0000 0080 1e03 2c3f
00000320: 0000 0040 7a00 303f 0000 00a0 af72 293f
00000330: 0000 0060 a8ee 2a3f 0000 0020 eef2 2c3f
00000340: 0000 0080 b717 2b3f 0000 00c0 489a 293f
00000350: 0000 00c0 b1cf 283f 0000 0060 b0c9 2f3f
00000360: 0000 00e0 494d 2d3f 0000 00a0 8ecb 303f
00000370: 0000 00e0 588c 2d3f 0000 0060 27fb 2a3f
00000380: 0000 00a0 9957 2e3f 0000 0000 a1e4 2a3f
00000390: 0000 00c0 2015 2c3f 0000 00c0 05ac 2a3f
000003a0: 0000 0080 649e 2f3f 0000 0060 b884 2b3f
000003b0: 0000 0000 cf3a 2c3f 0000 0020 e63e 2d3f
000003c0: 0000 0060 81ef 2a3f 0000 00a0 0be5 2c3f
000003d0: 0000 00c0 821d 293f 0000 0000 ef71 303f
000003e0: 0000 00e0 97f4 2b3f 0000 00a0 08e7 2c3f
000003f0: 0000 0060 59a4 2c3f 0000 0040 47c1 2d3f
